data/b_1.npy (npy, 8080 bytes, 1 tensors)

array f4 [2000]
-0.0044193137 0.027061824 -0.059291802 0.08862359 0.4774201 -0.10782407 0.10425476 0.30337662
0.40115392 0.13563958 0.013604772 0.08531794 0.2033386 0.21322966 -0.09021098 0.2285527
0.08707528 0.07321921 0.38748792 0.0099043725 0.038014766 0.1208266 0.07802039 -0.04256869
-0.057556413 0.05491688 0.10807578 0.4083106 0.12302667 0.18033105 0.14455207 -0.12904733
0.13110444 0.021808613 0.017003626 -0.09074433 0.2668196 0.014305901 0.09463516 0.4645686
-0.017064424 0.298804 0.081575915 -0.016822623 0.042246364 0.18273999 0.104437694 0.31725395
0.39145213 0.13263352 0.19822718 -0.056880325 -0.026396923 0.17206489 0.05799036 -0.018481674
0.08532454 -0.0019819604 0.03928363 0.06478488 0.24296649 0.06478806 0.12929389 0.12403862
-0.078617185 0.061181225 0.24680918 0.17244403 -0.040905084 0.41715753 0.008057609 0.15307795
-0.02737869 -0.041219644 0.3225736 0.63867736 0.21482323 0.3925628 0.013486471 0.019854229
0.04793813 0.048214193 0.029396081 -0.020145176 0.11281475 -0.027155014 0.14574926 -0.06626978
0.16522484 0.21560676 -0.005030512 0.08506761 0.05063758 0.031415045 0.4005604 -0.032213982
0.0007385028 -0.044485096 -0.058607694 0.035112783 0.06869033 0.0961176 0.32228717 -0.08377921
0.004578509 0.05659997 -0.03277311 0.08181522 0.0014889138 0.1859396 -0.0006249321 0.0031955831
0.28554323 0.2856364 -0.0012325579 -0.07435271 0.108699545 0.12302856 0.43268898 0.27870068
0.0037086676 0.023577703 0.12499669 0.14044034 0.08585421 0.109858535 -0.020608976 -0.0039397553
0.00498364 -0.044142455 0.06749796 -0.088229835 -0.010469579 0.17997102 -0.12657982 0.002737223
0.51930726 0.040578663 0.14700179 -0.003717777 -0.026658546 0.30452582 0.0037746513 0.40918037
0.21710739 -0.043578397 0.1884279 0.121534094 0.25878382 -0.113830045 0.22834179 0.105072685
0.10294827 -0.03482177 -0.06506479 0.080582924 0.025113279 0.48453045 -0.03227757 0.4014701
0.12138831 0.30772632 0.3808714 0.20699239 0.05792759 0.17527023 -0.0009869883 -0.0017040907
0.074489556 0.57758665 0.32621384 0.17487341 0.08100521 -0.069837466 -0.06878675 -0.04818194
-0.007978215 0.053174958 0.2597048 -0.011685367 0.0039985734 0.2533801 0.007902084 0.16374195
0.0018378363 -0.09111143 -0.02559425 0.06423558 0.13587123 0.42075896 -0.023509433 0.13000639
0.039719272 0.26495448 0.014124221 -0.17078362 0.11645289 0.2674993 0.051855255 0.18856531
0.10045883 -0.10562624 0.12601243 -0.06631532 0.17410703 0.47627938 0.07826239 0.09335307
0.028727105 -0.029419757 0.35171524 0.043674275 -0.053202625 0.08322185 0.16411634 0.15808068
0.21655089 0.41510108 -0.09768079 0.058582164 -0.013575302 -0.098190285 0.53890973 -0.0037691346
0.15136915 0.010337908 -0.049631536 -0.04615943 -0.08736335 0.08339396 -0.17749628 -0.010980946
0.56721246 -0.02266979 0.008339635 0.10755674 -0.07365886 0.10158982 -0.17879799 0.4527137
0.022829575 -0.04003141 0.005308095 0.0013386498 -0.06113954 -0.056932904 0.11845481 0.09331719
-0.087778516 0.16483955 0.0010676311 0.12823835 0.266448 -0.06096125 0.21367235 0.015212467
00000000: e4cf 90bb c2b0 dd3c f6db 72bd 4980 b53d
00000010: 6870 f43e ded2 dcbd 8583 d53d 2e54 9b3e
00000020: 0c64 cd3e 1ae5 0a3e 8de6 5e3c 2cbb ae3d
00000030: fe37 503e e058 5a3e 89c0 b8bd b809 6a3e
00000040: 8654 b23d f4f3 953d d164 c63e f345 223c
00000050: 5fb5 1b3d f073 f73d 27c9 9f3d 825c 2ebd
00000060: 46c0 6bbd 86f0 603d d656 dd3d 160e d13e
00000070: 68f5 fb3d b4a8 383e 7505 143e fc24 04be
00000080: 3e40 063e faa7 b23c 304b 8b3c 2ad8 b9bd
00000090: 949c 883e 4c63 6a3c 14d0 c13d efdb ed3e
000000a0: b1ca 8bbc d6fc 983e 4611 a73d 99cf 89bc
000000b0: 860a 2d3d 3120 3b3e 6ee3 d53d 1c6f a23e
000000c0: 6a6c c83e 15d1 073e 11fc 4a3e 58fb 68bd
000000d0: 5c3e d8bc c731 303e 4d87 6d3d e166 97bc
000000e0: a2be ae3d c7e3 01bb dfe7 203d efad 843d
000000f0: 35cc 783e 9aaf 843d 9e65 043e f607 fe3d
00000100: 0c02 a1bd 2a99 7a3d 8cbb 7c3e 2b95 303e
00000110: 178c 27bd ac95 d53e 1004 043c 77c0 1c3e
00000120: 4649 e0bc eed5 28bd 5e28 a53e 5c80 233f
00000130: 9ffa 5b3e fefd c83e 5cf6 5c3c 56a5 a23c
00000140: c65a 443d 3f7c 453d 0dd0 f03c 7f07 a5bc
00000150: 6b0b e73d 3174 debc 4b3f 153e 73b8 87bd
00000160: b330 293e 05c8 5c3e fed6 a4bb ed37 ae3d
00000170: 5a69 4f3d 10ad 003d 4116 cd3e cff2 03bd
00000180: 1598 413a 0136 36bd 9f0e 70bd 6cd2 0f3d
00000190: 84ad 8c3d 4ed9 c43d d302 a53e 6f94 abbd
000001a0: 5107 963b 5fd5 673d 193d 06bd bd8e a73d
000001b0: a827 c33a f366 3e3e 7cd2 23ba fd6c 513b
000001c0: b932 923e ef3e 923e c88d a1ba 3c46 98bd
000001d0: de9d de3d 66f6 fb3d 6989 dd3e dbb1 8e3e
000001e0: 1e0d 733b 0726 c13c 44fe ff3d 98cf 0f3e
000001f0: 55d4 af3d 83fd e03d 28d4 a8bc 1019 81bb
00000200: cd4d a33b b8ce 34bd 5f3c 8a3d d8b1 b4bd
00000210: 9988 2bbc 534a 383e 249e 01be fb62 333b
00000220: 52f1 043f d035 263d a387 163e f3a5 73bb
00000230: 0663 dabc cfea 9b3e 2460 773b 1780 d13e
00000240: 6651 5e3e 437f 32bd 3ef3 403e dee6 f83d
00000250: 507f 843e ba1f e9bd 6ed2 693e 5930 d73d
00000260: 8bd6 d23d 46a1 0ebd b040 85bd a908 a53d
00000270: 5dba cd3c 6014 f83e 7c35 04bd 7d8d cd3e
00000280: 6f9a f83d 4e8e 9d3e 9301 c33e d0f5 533e
00000290: 7b45 6d3d 0a7a 333e d55d 81ba cc5b dfba
000002a0: fb8d 983d b8dc 133f 8005 a73e 0412 333e
000002b0: 0fe6 a53d f206 8fbd 11e0 8cbd 6d5a 45bd
000002c0: 0fb7 02bc fccd 593d 07f8 843e fb73 3fbc
000002d0: 7706 833b 09bb 813e be77 013c f8ab 273e
000002e0: 8ee3 f03a a198 babd 08ab d1bc f28d 833d
000002f0: d421 0b3e b86d d73e db96 c0bc 6520 053e
00000300: adb0 223d 1da8 873e 4769 673c e7e1 2ebe
00000310: da7e ee3d abf5 883e 2d66 543d 4417 413e
00000320: 5cbd cd3d 9252 d8bd 6709 013e 54d0 87bd
00000330: 1d49 323e e4da f33e 0848 a03d e52f bf3d
00000340: 1b55 eb3c b401 f1bc 0514 b43e cce3 323d
00000350: ffea 59bd 3870 aa3d 1d0e 283e e7df 213e
00000360: 84bf 5d3e 2188 d43e de0c c8bd daf3 6f3d
00000370: f26a 5ebc fd17 c9bd fdf5 093f 9603 77bb
00000380: 8400 1b3e 5460 293c 704a 4bbd ac11 3dbd
00000390: 8eeb b2bd 74ca aa3d 96c1 35be 6de9 33bc
000003a0: d634 113f ffb5 b9bc f7a2 083c b546 dc3d
000003b0: 75da 96bd 530e d03d d216 37be 17ca e73e
000003c0: 1705 bb3c faf7 23bd 87ef ad3b a275 af3a
000003d0: 746d 7abd 7a32 69bd 6f98 f23d 151d bf3d
000003e0: 39c5 b3bd b3cb 283e c1ef 8b3a ea50 033e
000003f0: df6b 883e 81b2 79bd edcc 5a3e b63d 793c
