data/d_b_0.npy (npy, 9296 bytes, 1 tensors)

array f4 [2304]
0	0xbea74054	-0.32666266
1	0xbe7662b5	-0.24061091
2	0xbe2e9ba8	-0.17051566
3	0xbe022a96	-0.12711558
4	0xbdc84876	-0.09779446
5	0xbdc1adc0	-0.09456968
6	0xbdc26a9a	-0.09492989
7	0xbdb61214	-0.08890167
8	0xbd9823b3	-0.07428684
9	0xbd7c7485	-0.06163456
10	0xbd58cb55	-0.052928288
11	0xbcf33293	-0.029687202
12	0xbc15c0e4	-0.009140227
13	0x3d07994d	0.033105183
14	0x3da57e32	0.080807105
15	0x3e15dc50	0.14634824
16	0x3e50d20a	0.20392624
17	0x3e88faae	0.26753753
18	0x3ea622e2	0.32448488
19	0x3ec0184c	0.37518537
20	0x3ed222c5	0.41042152
21	0x3ee02f88	0.43786263
22	0x3ee904c5	0.4551145
23	0x3eeb66d4	0.4597689
24	0x3eebfb45	0.4609014
25	0x3ee52a45	0.44758812
26	0x3edba67f	0.42900464
27	0x3ed9801b	0.4248055
28	0x3ecc72bc	0.39931285
29	0x3eb86818	0.36016917
30	0x3e9bbf3b	0.30419335
31	0x3e79955c	0.24373382
32	0x3e3abbc7	0.18235694
33	0x3e00ffaa	0.12597528
34	0x3d910c71	0.07082451
35	0x3cd71ed1	0.026259812
36	0xbc2a8651	-0.010408
37	0xbd00eba7	-0.031474736
38	0xbd4c00a4	-0.0498053
39	0xbd83520e	-0.06412135
40	0xbdaa3b13	-0.08312049
41	0xbdbbc101	-0.09167672
42	0xbdd10400	-0.10205841
43	0xbddc8446	-0.10767417
44	0xbe03c4a3	-0.1286798
45	0xbe189220	-0.14899492
46	0xbe49ca69	-0.1970612
47	0xbe8068db	-0.25079998
48	0xbea538d1	-0.3226991
49	0xbe80a67d	-0.2512702
50	0xbe51bc83	-0.20482068
51	0xbe347bd1	-0.17625357
52	0xbe305ef1	-0.17223717
53	0xbe3e9acb	-0.18613736
54	0xbe4accfe	-0.19804761
55	0xbe58cb24	-0.21171242
56	0xbe62c833	-0.22146682
57	0xbe7a7dbe	-0.2446203
58	0xbe828b70	-0.25497007
59	0xbe85178d	-0.2599453
60	0xbe71f39c	-0.23628086
61	0xbe515d67	-0.20445786
62	0xbe16dafa	-0.1473197
63	0xbd856842	-0.06514026
64	0x3c860102	0.016357902
65	0x3de3df43	0.11126568
66	0x3e4bc346	0.1989871
67	0x3e8817c7	0.2658064
68	0x3ea2244a	0.3166831
69	0x3eb9ab71	0.36263612
70	0x3ecf9148	0.40540528
71	0x3eda5bf6	0.42648286
72	0x3edb9e25	0.42894092
73	0x3ecba787	0.3977625
74	0x3ebd81d9	0.37013128
75	0x3eb1a0d4	0.34693015
76	0x3e9bc48c	0.3042339
77	0x3e7fa479	0.24965085
78	0x3e31ceb9	0.17364015
79	0x3db0000d	0.0859376
80	0xba34540d	-0.00068789796
81	0xbdb777d5	-0.08958403
82	0xbe269893	-0.1626914
83	0xbe5cddf4	-0.21569043
84	0xbe7cc4cc	-0.24684447
85	0xbe8844e3	-0.26615056
86	0xbe86b0cf	-0.2630677
87	0xbe79a487	-0.24379168
88	0xbe67db44	-0.22642237
89	0xbe57de92	-0.21080998
90	0xbe47abe8	-0.19499171
91	0xbe3efa55	-0.18650182
92	0xbe389636	-0.18026051
93	0xbe4adf82	-0.19811824
94	0xbe6bd190	-0.2302916
95	0xbe88e327	-0.26735803
96	0xbea6e724	-0.3259822
97	0xbe9120dc	-0.28345382
98	0xbe8433cc	-0.25820768
99	0xbe80899b	-0.25104985
100	0xbe81c458	-0.2534511
101	0xbe86411c	-0.2622155
102	0xbe8e4e4e	-0.27794117
103	0xbe9bb61f	-0.30412385
104	0xbeae3a6c	-0.34028947
105	0xbec46bd1	-0.38363507
106	0xbed6fab6	-0.41988152
107	0xbee7e70b	-0.4529346
108	0xbee6d65f	-0.45085427
109	0xbedf660a	-0.43632537
110	0xbec38e72	-0.38194615
111	0xbe9d355c	-0.30704772
112	0xbe499914	-0.19687301
113	0xbd98a883	-0.07454016
114	0x3d074521	0.03302491
115	0x3e0328a5	0.12808473
116	0x3e5287ca	0.20559612
117	0x3e8923dc	0.2678517
118	0x3ea8086b	0.32818922
119	0x3ebca51c	0.36844718
120	0x3ebf602a	0.37378055
121	0x3eb37bdc	0.35055435
122	0x3e9ccdd5	0.30625787
123	0x3e7e86bb	0.24856083
124	0x3e3ec1bf	0.18628596
125	0x3dd69792	0.104781285
126	0x39b8e19a	0.000352633
127	0xbdd9e84e	-0.10640012
128	0xbe686fd3	-0.22698908
129	0xbea70b76	-0.32625932
130	0xbeca98f4	-0.3956982
131	0xbee61b65	-0.44942775
132	0xbeeb177f	-0.45916364
133	0xbee95de4	-0.45579445
134	0xbed6c9b0	-0.4195075
135	0xbebce8db	-0.36896405
136	0xbea501dd	-0.32227984
137	0xbe95ad5c	-0.29233825
138	0xbe8d7fe9	-0.2763665
139	0xbe824bad	-0.2544836
140	0xbe74a1f6	-0.23889908
141	0xbe7d6b10	-0.24747872
142	0xbe882d87	-0.26597235
143	0xbe9172d9	-0.28407934
144	0xbeac6a2f	-0.33674762
145	0xbea2a584	-0.31766903
146	0xbe9b23cc	-0.30300748
147	0xbe9b7863	-0.30365285
148	0xbe9d5acf	-0.30733344
149	0xbe9c2386	-0.30495852
150	0xbe9a0760	-0.30083752
151	0xbe9db75a	-0.3080395
152	0xbeab447e	-0.33450693
153	0xbebe611b	-0.3718346
154	0xbed752f1	-0.42055467
155	0xbef2f030	-0.47448874
156	0xbf023dbd	-0.50875455
157	0xbf071f3c	-0.52782035
158	0xbf025401	-0.5090943
159	0xbeeb16a6	-0.45915717
160	0xbec1a44b	-0.37820658
161	0xbe86689d	-0.2625169
162	0xbe0b39ac	-0.13596219
163	0xbc3921b1	-0.011299537
164	0x3da5bc44	0.080925494
165	0x3e333f9f	0.17504738
166	0x3e8208d8	0.25397372
167	0x3ea09991	0.31367162
168	0x3ea9c60c	0.3315891
169	0x3e9af222	0.30262858
170	0x3e6aa7b1	0.22915532
171	0x3e154c9e	0.14580008
172	0x3d7444ee	0.05963605
173	0xbd3c922f	-0.04603785
174	0xbe2a3652	-0.16622284
175	0xbe92d099	-0.28674772
176	0xbecd0179	-0.40040186
177	0xbefc99e2	-0.49336153
178	0xbf09cd6b	-0.5382907
179	0xbf0bc726	-0.5460075
180	0xbf043fb1	-0.51659685
181	0xbef44532	-0.47709042
182	0xbed16c0c	-0.40902746
183	0xbeb46c6a	-0.35238963
184	0xbe9c4dc8	-0.30528092
185	0xbe9088ce	-0.28229374
186	0xbe8a32cc	-0.2699188
187	0xbe8a063e	-0.26957887
188	0xbe8a5c9d	-0.27023783
189	0xbe8b9979	-0.27265528
190	0xbe943924	-0.28949845
191	0xbe9bd179	-0.30433252
192	0xbeb451e3	-0.35218725
193	0xbeac7591	-0.33683446
194	0xbeaace16	-0.33360356
195	0xbea390f1	-0.3194652
196	0xbe96c429	-0.29446533
197	0xbe8aa6d5	-0.27080408
198	0xbe7d4248	-0.24732316
199	0xbe8161d2	-0.25269943
200	0xbe83df06	-0.2575609
201	0xbe8c5aa2	-0.27412897
202	0xbe9f4a32	-0.31111294
203	0xbec07891	-0.37591985
204	0xbee20fba	-0.44152623
205	0xbefd2b61	-0.49447158
206	0xbf041c96	-0.5160612
207	0xbf00e8e1	-0.50355345
208	0xbee9df98	-0.456784
209	0xbebced71	-0.36899903
210	0xbe86836a	-0.26272136
211	0xbe187a7e	-0.14890477
212	0xbd0e255c	-0.034703597
213	0x3da5798e	0.08079825
214	0x3e3ffaec	0.18748063
215	0x3e886a52	0.26643616
216	0x3e987371	0.29775575
217	0x3e82ff59	0.2558544
218	0x3e29e4b9	0.16591157
219	0x3d81072f	0.06300198
220	0xbd61dd8b	-0.05514292
221	0xbe3381ab	-0.17529933
222	0xbe9bc601	-0.30424502
223	0xbecce6d2	-0.40019852
224	0xbef5a932	-0.47980648
225	0xbf06dab4	-0.52677464
226	0xbf0749e6	-0.52847135
227	0xbf0098ac	-0.5023296
228	0xbee4431a	-0.44582444
229	0xbec1d615	-0.37858644
230	0xbe9ee13e	-0.3103122
231	0xbe851adf	-0.25997064
232	0xbe74fd29	-0.23924698
233	0xbe5e9b38	-0.21738899
234	0xbe5e9f8f	-0.21740554
235	0xbe76bd2e	-0.24095604
236	0xbe877b04	-0.2646104
237	0xbe94722a	-0.2899335
238	0xbe9855bd	-0.29752913
239	0xbe9bb246	-0.3040945
240	0xbeb40aca	-0.3516448
241	0xbeab10e5	-0.33411327
242	0xbea3868b	-0.31938586
243	0xbe94ccbf	-0.2906246
244	0xbe81a501	-0.253212
245	0xbe678f17	-0.22613178
246	0xbe5ae0aa	-0.21374765
247	0xbe59641a	-0.21229592
248	0xbe5ac028	-0.21362364
249	0xbe707855	-0.23483403
250	0xbe891173	-0.26771125
251	0xbea43de0	-0.32078457
252	0xbec3f2df	-0.38271233
253	0xbee5e597	-0.44901726
254	0xbefbd3d8	-0.4918506
255	0xbf009294	-0.5022366
