data/e_b_2.npy (npy, 1680 bytes, 1 tensors)

array f4 [400]
0	0x3d854d46	0.06508879
1	0xbd4a6264	-0.04941024
2	0xbc37ed5f	-0.011226027
3	0x3e919289	0.2843211
4	0x3b0f6fdf	0.0021886749
5	0xbdd7fd38	-0.105463445
6	0xbde545ee	-0.11194979
7	0x3e52a10a	0.20569244
8	0x3e2a1926	0.16611156
9	0xbd90e6bb	-0.07075258
10	0xbd7b1ad8	-0.061304897
11	0x3e22d694	0.15902168
12	0xbcd176d2	-0.025569353
13	0xbe866070	-0.2624545
14	0x3dbe6af0	0.092977405
15	0xbde86f63	-0.1134937
16	0x3cd40502	0.025881294
17	0x3e036fd3	0.12835626
18	0xbe795c8e	-0.24351713
19	0xbe0cfab6	-0.13767514
20	0x3def3498	0.11679953
21	0xbe7678d1	-0.24069525
22	0xbd3a726c	-0.045519277
23	0x3dcd23b1	0.10016573
24	0x3dc502d7	0.09619682
25	0x3d0c08a0	0.034187913
26	0x3ca5af8b	0.020225307
27	0x3d24ad13	0.04020412
28	0xbe1a0718	-0.15041769
29	0xbcee22e0	-0.029069364
30	0x3e0a66d6	0.13515791
31	0xbf787395	-0.97051364
32	0xbe94e1a2	-0.29078394
33	0x3d98e8f6	0.07466309
34	0xbc8274dc	-0.015924864
35	0xbd79f792	-0.061027117
36	0xbe0b1dae	-0.1358554
37	0x3e22e667	0.15908204
38	0xbe0329b3	-0.12808876
39	0xbdb3c28d	-0.08777342
40	0x3e03260f	0.12807487
41	0xbaa6d148	-0.0012727166
42	0x3de3f37e	0.11130427
43	0x3b58125c	0.0032969927
44	0x3d6cbdd7	0.057798233
45	0xbe0d2987	-0.13785373
46	0xbde3fc29	-0.1113208
47	0xbc44b593	-0.012006181
48	0x3e8a5561	0.27018264
49	0x3e01197a	0.12607375
50	0x3d20b113	0.03923137
51	0xbe26b334	-0.16279298
52	0x3bc9e3fc	0.006161211
53	0xbdf5321b	-0.119724475
54	0x3e7eb6d4	0.24874431
55	0xbd4ce46b	-0.050022524
56	0xbd2f49fd	-0.04279517
57	0x3e0c1882	0.13681224
58	0xbe11d788	-0.14242375
59	0xbe397dec	-0.18114442
60	0xbdc4abf9	-0.09603114
61	0x3e602a50	0.21891141
62	0x3de4c1b5	0.11169759
63	0x3dffcffc	0.12490842
64	0x3c6e38bf	0.0145398965
65	0xbd7c0c89	-0.061535392
66	0xbd942b21	-0.07234789
67	0xbe8050e2	-0.2506171
68	0x3dbdbba0	0.09264302
69	0xbf2b6fb8	-0.66967344
70	0xbd9256f5	-0.07145492
71	0x3e6b7c53	0.22996645
72	0xbe102847	-0.14077865
73	0xbd642770	-0.055701673
74	0xbd96487e	-0.073380455
75	0xbd89a42a	-0.06720765
76	0x3dba3fe9	0.09094221
77	0x3e040a39	0.12894525
78	0x3c90de4c	0.017684124
79	0xbd5f7e8a	-0.054564036
80	0xbe13f1f1	-0.14447762
81	0x3d1e2b21	0.03861535
82	0xbe1ce991	-0.15323474
83	0x3e987d27	0.29782984
84	0xbf9e092f	-1.2346553
85	0xbe53ca53	-0.2068265
86	0xbe03de3a	-0.12877741
87	0x3e51c500	0.20485306
88	0x3decd02f	0.11563145
89	0x3d90df86	0.07073884
90	0x3e5fa2a9	0.21839394
91	0x3bf57457	0.0074906754
92	0x3ee91c50	0.45529413
93	0xbdcaed60	-0.09908557
94	0x3dfb440f	0.122688405
95	0x3d9fc8ed	0.078019954
96	0xbd6b72cd	-0.05748253
97	0xbd7683b4	-0.060184196
98	0x3c987b48	0.018613473
99	0xbe306ac0	-0.17228222
100	0xbd2167ed	-0.039405752
101	0xbdc30c24	-0.095238
102	0x3d28a853	0.04117615
103	0x3e0d911c	0.13824886
104	0xbd144e49	-0.03620747
105	0x3e019467	0.12654267
106	0x3d99c273	0.07507791
107	0xbdd3d363	-0.10343053
108	0x3e0e1846	0.13876447
109	0xbd981e2f	-0.07427632
110	0x3e79062b	0.24318759
111	0xbdd9233d	-0.10602424
112	0xbe0af170	-0.13568664
113	0x3dafb314	0.08579078
114	0x3e4d5cac	0.20054883
115	0xbe986bf1	-0.29769853
116	0xbdd13df8	-0.10216898
117	0xbe08af25	-0.13348062
118	0xbd9b3b97	-0.07579725
119	0x3e471832	0.19442824
120	0xbd1256a1	-0.035727147
121	0xbd374e7f	-0.044752594
122	0x3d047809	0.032341037
123	0xbd8ad3b4	-0.067786604
124	0xbe46a249	-0.19397844
125	0xbe14bfaf	-0.14526246
126	0x3df3b7a2	0.119002596
127	0xbd85f975	-0.06541721
128	0x3d920472	0.07129754
129	0x3e1fea9e	0.15616843
130	0xbd53c0b2	-0.05169744
131	0x3df1e36d	0.11810956
132	0xbe7efa08	-0.24900067
133	0xbe0d6e6b	-0.13811652
134	0x3e9b0bcc	0.30282438
135	0xbe83cb15	-0.25740877
136	0xbd76f2fd	-0.060290325
137	0x3e9fd480	0.31216812
138	0xbdd57b99	-0.10423965
139	0x3cbae15b	0.022812536
140	0x3adaae1f	0.0016683972
141	0x3d91b85e	0.071152434
142	0xbe957aa6	-0.29195136
143	0xbdecfffe	-0.11572264
144	0xbdf36a1e	-0.118854746
145	0xbd49c2ab	-0.049257915
146	0x3e7ad684	0.24495894
147	0xbd97e353	-0.074164055
148	0x3dd56896	0.10420339
149	0xbd817e65	-0.06322936
150	0x3debc8f6	0.1151294
151	0xbdce9008	-0.100860655
152	0x3df6dd3a	0.12053914
153	0x3d88de3c	0.06683013
154	0xbd42884d	-0.047493268
155	0x3d4f19ca	0.050561704
156	0xbe80f52f	-0.2518706
157	0x3e7fb718	0.24972188
158	0x3cff3f1d	0.031158024
159	0xbe54d02e	-0.20782539
160	0x3e862337	0.26198742
161	0xbdac3894	-0.08409229
162	0x3d09b92c	0.03362386
163	0x3e3a58e2	0.18197969
164	0xbdb2c55b	-0.08729049
165	0x3f94c7eb	1.162351
166	0x3d3888a0	0.04505217
167	0x3db4e1af	0.08832108
168	0xbddd9f60	-0.10821414
169	0x3dc851bb	0.09781214
170	0xbcf248ea	-0.029575784
171	0x3e92453b	0.28568444
172	0x3de9fb58	0.11424893
173	0xbdef68b4	-0.116898924
174	0x3de7ec8b	0.11324414
175	0x3d061a52	0.032739945
176	0xbb4763b2	-0.0030424413
177	0x3d46455c	0.04840599
178	0xbed037af	-0.40667483
179	0x3e11e077	0.14245783
180	0x3decfda4	0.115718156
181	0xbe3964d7	-0.18104874
182	0x3e267d40	0.16258717
183	0xbd486340	-0.048922777
184	0xbe105fab	-0.14098994
185	0x3aa31f69	0.0012445274
186	0xbe548203	-0.2075272
187	0x3d16171f	0.036643144
188	0xbdf7ae66	-0.12093811
189	0x3d787cc9	0.06066588
190	0xbd458377	-0.048221078
191	0xbe234f94	-0.15948325
192	0x3f0b5841	0.5443154
193	0xbdfa0138	-0.12207264
194	0x3e33c76b	0.1755654
195	0x3cc6df76	0.024276476
196	0xbe1b1ab2	-0.15146902
197	0xbb8dbb98	-0.0043253414
198	0xbe1d2526	-0.15346202
199	0x3e22241c	0.15834087
200	0x3da36d93	0.07979884
201	0xbc17d5b0	-0.009267256
202	0x3e158613	0.14601927
203	0xbbd54a9e	-0.006509139
204	0xbc6ba180	-0.014381766
205	0xbe9e08a6	-0.30865973
206	0xbee5c45f	-0.44876382
207	0x3da23379	0.07919974
208	0xbd5fb0da	-0.05461202
209	0xbd9a3987	-0.07530504
210	0xbe1a6162	-0.15076211
211	0xbcd28497	-0.02569799
212	0x3e0ad86d	0.13559122
213	0xbc9b38c7	-0.018947972
214	0x3e09f1a7	0.1347109
215	0xbe36ffd8	-0.17871034
216	0xbd6b2db4	-0.057416633
217	0xbe55e7d3	-0.20889215
218	0xbdaf2edd	-0.0855386
219	0x3ee583a1	0.44826987
220	0xbda57bf9	-0.080802865
221	0x3db55967	0.08854943
222	0xbdf11e72	-0.11773385
223	0xbb5a6c6e	-0.003332879
224	0xbbcfd61c	-0.0063426625
225	0xbea5ea66	-0.32405394
226	0xbd056aad	-0.032572437
227	0xbe0e6db5	-0.13909037
228	0xbcb07e15	-0.021544496
229	0xbd52715c	-0.05137764
230	0xbdd864da	-0.10566111
231	0xbda1c615	-0.07899109
232	0xbd8f276e	-0.069899425
233	0x3d50594e	0.050866418
234	0x3d52bbd2	0.05144865
235	0xbf45d4bb	-0.77277726
236	0x3d28c213	0.04120071
237	0x3ddf5686	0.10905175
238	0x3e1df6bd	0.15426154
239	0x3e3f5732	0.18685606
240	0x3c50dd88	0.01274813
241	0x3ddb80f6	0.10717957
242	0x3d8bde32	0.0682949
243	0xbd9647ba	-0.073378995
244	0x3e58b891	0.21164156
245	0x3e0292e0	0.12751341
246	0x3ce823d7	0.028337402
247	0x3e0265de	0.12734172
248	0xbc50a0b9	-0.012733632
249	0x3db9f6d9	0.090802856
250	0x3e95cb8c	0.29256856
251	0x3e87030d	0.26369515
252	0xbd86c17a	-0.065798715
253	0x3cf6d79f	0.030132113
254	0x3e337ff5	0.1752928
255	0x3e1cee5b	0.153253
