data/e_b_1.npy (npy, 8080 bytes, 1 tensors)

array f4 [2000]
-0.073099524 -0.029400816 -0.009689722 0.10098894 -1.3657556 -0.27279305 -0.08030406 -0.0039584734
0.057262883 0.10646138 -0.035358585 -0.1896856 0.09227567 -0.7504874 -0.11560425 -1.1323192
-0.0628126 -0.052004706 -0.4447394 -0.081820376 0.016954185 0.20644265 -0.15073782 -0.45361438
0.1552337 0.34120324 -0.04599778 -0.052259713 -0.03197348 -0.37164736 0.0572278 0.27066052
0.22566123 -0.08412313 0.018221436 -0.0031059177 0.42385733 0.009264346 -0.14692579 0.17806421
-0.15847956 -0.05488493 -0.7682458 -0.05111368 0.12197824 0.19190775 -0.06396576 -0.9919263
-0.016041193 -1.0768073 -0.07042758 -0.043431416 0.006117751 -0.083558895 -0.019620063 0.25427455
0.13300349 -0.23265374 0.019658422 0.02388919 0.071151964 0.036203366 -0.013968901 -0.035446625
-0.11579247 -0.32883203 -1.1187655 -0.29362994 -0.047263794 0.12281508 0.69525987 -0.14045386
-0.7171497 -0.013891345 -0.31956306 0.39996362 -0.3525857 -0.0056752013 -0.23246953 0.06443844
0.09422474 0.042663343 -0.015554503 0.067321576 0.08540438 0.0030857716 -0.0620116 0.0092835575
-0.041305464 0.3354093 -0.01920713 -0.034263797 -0.055389266 -0.073202506 0.006728023 0.009886097
0.0025590966 -0.018971262 -0.2595929 0.03277119 0.09178444 -0.0042688716 0.06581329 0.17147526
-0.040269326 -0.22475073 0.044545155 -0.6243937 0.2528751 0.05163491 0.40231284 -0.8790726
0.077840105 0.7147816 0.0002999901 1.0362823 -0.5150448 -0.20822006 0.20884697 -0.45174986
-1.7356051 0.009885258 0.015480178 -0.041154884 0.01688069 0.00612162 0.11814651 0.022043372
0.0129162455 -0.0056933626 0.21825947 -0.65888226 -0.41109994 0.07552769 0.079444006 -0.5724094
0.026479227 -0.57994676 -0.043288182 -0.028507596 0.19043893 0.120568566 0.034595784 -0.10323621
-0.21000616 0.0223264 0.116934486 0.023498883 -0.28629845 -0.9985101 -0.0452369 0.0224046
0.0017411147 0.20117177 -1.2763634 -0.10844038 -0.0071992865 -0.21130647 0.051415112 -0.03151064
-1.2540294 -0.26482242 -0.5808942 -0.07873041 0.070569545 0.007289517 -0.18491112 -2.0038788
0.12350486 0.12138412 0.4620012 0.2506576 -0.52289397 -0.2523832 0.05413253 0.18162715
-0.028233763 -0.32020423 -0.45495915 0.424138 -0.11248688 0.00806561 0.29446056 -0.24949469
-0.059382465 0.23517254 0.10120192 -0.097473264 -1.3039739 -1.191313 -0.2763905 -0.17033835
-0.021291988 -0.080534704 0.15402342 0.3897286 -0.7318239 0.1781152 -0.4676096 0.17924534
-0.016350627 -0.00050619926 0.17624603 -0.029329425 0.00026541526 -0.0628232 -0.04855026 0.16043922
0.25872904 0.04754349 -0.035350554 0.20900148 -0.05586409 -0.19791159 -0.74867624 0.21524483
-0.027744561 0.013386312 0.019286787 0.20556597 0.08607162 -0.027739324 0.057800755 0.08226426
-0.012272481 0.10676919 0.0011899129 -0.0017108171 -0.11966225 0.14330983 0.22131728 0.2877335
-0.0006868359 0.014239496 0.17421013 0.016485138 -0.4148973 -0.8195075 0.41611803 0.035234556
-0.59296036 -0.012226449 -0.2734611 0.21721461 -0.16797425 -0.047798168 0.019758364 -0.0737085
0.38359088 0.010599351 0.2676543 -0.02732345 0.1562857 -1.222654 0.11933134 -0.3947197
00000000: 34b5 95bd fbd9 f0bc a4c1 1ebc 4ad3 ce3d
00000010: 14d1 aebf 88ab 8bbe 7476 a4bd 15b6 81bb
00000020: 7c8c 6a3d 6d08 da3d 2ad4 10bd f13c 42be
00000030: 07fb bc3d f11f 40bf ecc1 ecbd d6ef 90bf
00000040: e4a3 80bd e302 55bd e2b4 e3be 7191 a7bd
00000050: 81e3 8a3c b465 533e 045b 1abe 2540 e8be
00000060: 95f5 1e3e 31b2 ae3e 2b68 3cbd 480e 56bd
00000070: a0f6 02bd 9048 bebe b367 6a3d 0494 8a3e
00000080: bd13 673e bf48 acbd 1f45 953c a78c 4bbb
00000090: d403 d93e 7cc9 173c b773 16be 7756 363e
000000a0: 7748 22be 05cf 60bd c2ab 44bf 945c 51bd
000000b0: bacf f93d 7783 443e 7b00 83bd e2ee 7dbf
000000c0: d268 83bc d2d4 89bf 563c 90bd 24e5 31bd
000000d0: 6a77 c83b ed20 abbd 41ba a0bc 4630 823e
000000e0: 1132 083e c83c 6ebe b30a a13c 43b3 c33c
000000f0: 1fb8 913d fb49 143d d1dd 64bc 7b30 11bd
00000100: 9a24 edbd ac5c a8be b533 8fbf aa56 96be
00000110: ae97 41bd 7986 fb3d 8dfc 313f 23d3 0fbe
00000120: 1f97 37bf 8698 63bc c59d a3be 08c8 cc3e
00000130: 1d86 b4be 0af7 b9bb 7e0c 6ebe 4df8 833d
00000140: e7f8 c03d c2bf 2e3d 50d8 7ebc e5df 893d
00000150: 7ee8 ae3d a83a 4a3b e0ff 7dbd 101a 183c
00000160: eb2f 29bd c5ba ab3e 4558 9dbc 3258 0cbd
00000170: dbdf 62bd 32eb 95bd bf76 dc3b 4cf9 213c
00000180: 84b6 273b 9f69 9bbc 5ce9 84be 153b 063d
00000190: 7bf9 bb3d e4e1 8bbb 1ec9 863d 3697 2f3e
000001a0: 73f1 24bd 0e25 66be fb74 363d 44d8 1fbf
000001b0: d878 813e 217f 533d f3fb cd3e e70a 61bf
000001c0: a26a 9f3d edfb 363f fd47 9d39 e6a4 843f
000001d0: fad9 03bf a437 55be fbdb 553e c24b e7be
000001e0: 4f28 debf c7f5 213c 93a0 7d3c 0692 28bd
000001f0: 5f49 8a3c df97 c83b ccf6 f13d 4d94 b43c
00000200: a99e 533c 638f babb 697f 5f3e 82ac 28bf
00000210: b17b d2be 43ae 9a3d 8ab3 a23d 6c89 12bf
00000220: f7ea d83c 6477 14bf f34e 31bd c388 e9bc
00000230: 6c02 433e a7ec f63d 4fb4 0d3d 826d d3bd
00000240: db0b 57be dbe5 b63c 597b ef3d bb80 c03c
00000250: b695 92be 5c9e 7fbf 544a 39bd da89 b73c
00000260: 1d36 e43a f9ff 4d3e e05f a3bf fd15 debd
00000270: fee7 ebbb b960 58be a798 523d 4d11 01bd
00000280: 0984 a0bf ce96 87be 7bb5 14bf 693d a1bd
00000290: c486 903d e7dc ee3b 5759 3dbe 8d3f 00c0
000002a0: 1ef0 fc3d 3d98 f83d 6c8b ec3e 3156 803e
000002b0: 61dc 05bf 5f38 81be 12ba 5d3d 78fc 393e
000002c0: 7e4a e7bc cff1 a3be 68f0 e8be 9e28 d93e
000002d0: 855f e6bd 9f25 043c 89c3 963e 897b 7fbe
000002e0: 073b 73bd 12d1 703e f442 cf3d 10a0 c7bd
000002f0: 9ee8 a6bf f27c 98bf 0e83 8dbe 2d6d 2ebe
00000300: 896c aebc 61ef a4bd 51b8 1d3e 828a c73e
00000310: d058 3bbf d563 363e 876a efbe 178c 373e
00000320: c0f1 85bc 75b2 04ba d779 343e 4344 f0bc
00000330: 6f27 8b39 73a9 80bd a3dc 46bd 2e4a 243e
00000340: 2278 843e f6bc 423d becb 10bd 7c04 563e
00000350: bed1 64bd 56a9 4abe 3fa9 3fbf 2469 5c3e
00000360: 9048 e3bc 4352 5b3c 53ff 9d3c e37f 523e
00000370: 5146 b03d 943d e3bc 7cc0 6c3d 2a7a a83d
00000380: 8412 49bc cea9 da3d daf6 9b3a 7f3d e0ba
00000390: 7b11 f5bd d0bf 123e ffa0 623e ce51 933e
000003a0: c70c 34ba c64c 693c 2464 323e d70b 873c
000003b0: 6b6d d4be 3ecb 51bf 6c0d d53e 1c52 103d
000003c0: 40cc 17bf 7251 48bc 1803 8cbe 826d 5e3e
000003d0: 7101 2cbe 03c8 43bd 4bdc a13c 7bf4 96bd
000003e0: 0666 c43e e6a8 2d3c fc09 893e 6ed5 dfbc
000003f0: 5c09 203e ed7f 9cbf fd63 f43d b318 cabe
