data/e_b_0.npy (npy, 8080 bytes, 1 tensors)

array f4 [2000]
000000 12 bf ab 3e 0d 29 58 bb ee f9 91 b9 3c d3 01 c0
       0.33544213 -0.0032983453 -0.00027842767 -2.0285177
000010 fd 02 54 bf 22 ff 48 c0 b1 cd ac 3a 4d 72 48 c0
       -0.8281706 -3.140572 0.0013183859 -3.1319764
000020 33 21 f9 be a2 ba 0f c0 99 0f 29 3f 29 39 32 3f
       -0.48658141 -2.2457662 0.66039425 0.6961847
000030 c9 ab 6c 3e 00 00 00 00 78 63 42 3e 4b 70 8c be
       0.23112406 0.0 0.18983257 -0.27429423
000040 21 f6 bc 3d 10 4a f7 bc e6 84 60 bf 55 fd 1e 39
       0.09226633 -0.030186683 -0.87702787 0.00015162428
000050 9f 76 3f 3c 06 ed 10 bd c9 c9 29 c0 85 ad 83 3f
       0.011685996 -0.035382293 -2.652941 1.0287329
000060 15 a9 9a b9 5f 1e ab bf 93 43 63 3d 62 10 a0 b9
       -0.00029499145 -1.3368644 0.055484366 -0.00030529784
000070 fc bc 43 3b 01 dd 31 3f 53 83 97 c0 90 ee 69 c0
       0.0029867282 0.6947785 -4.734781 -3.6551857
000080 33 d9 07 3f ca b4 62 bc 7b 35 30 b9 47 07 02 c0
       0.53065795 -0.013837049 -0.00016804591 -2.0316942
000090 7c 93 1a 3f a3 f9 19 bd 7a 1a 7f 3e 27 4c 3f 3f
       0.60381293 -0.037591588 0.24912444 0.74725574
0000a0 1b 44 71 3a ca 01 54 3e 00 00 00 00 10 02 ca 3c
       0.0009203569 0.20703807 0.0 0.024659187
0000b0 79 86 9a 40 06 93 cd 3b ce 57 f1 bf 84 a6 01 3f
       4.828915 0.00627363 -1.8854921 0.5064471
0000c0 73 db 8d 3f 60 25 07 ba d4 a3 45 3d 44 f8 85 3c
       1.1082596 -0.00051554106 0.04825194 0.016353734
0000d0 a4 ba df 3e 45 65 c0 3d 74 5a fa 3a a2 ed 3b c0
       0.43697083 0.09394316 0.0019100443 -2.936379
0000e0 8f d2 17 3f b9 f7 dd 3b 15 26 31 c0 f8 35 b7 3e
       0.5930566 0.0067739156 -2.7679493 0.35783362
0000f0 ec 57 68 b9 19 84 f3 b2 83 1c 12 3d 2d 21 80 3d
       -0.00022157998 -2.8348994e-08 0.035671722 0.06256328
000100 33 87 76 bf 5a 1a 07 3d ef ee 92 b8 01 11 a0 3f
       -0.9630005 0.032984115 -7.006327e-05 1.2505189
000110 07 f8 de b6 af 4d 1c 3e 8c 27 8a bf 1f 5b c7 3d
       -6.6449898e-06 0.15264009 -1.0793319 0.09734177
000120 8e c7 dc b9 b6 e2 4b 3b b0 ba 84 bf 12 b1 cb c0
       -0.0004211035 0.0031110472 -1.0369473 -6.365365
000130 aa 5f 89 3e 58 7b 93 b9 32 f0 6e 3a b7 f0 5a c0
       0.26830798 -0.00028129923 0.00091147714 -3.420942
000140 56 10 01 c0 d1 ca 00 c0 9e f1 cf 3e 64 59 37 3e
       -2.016622 -2.012379 0.40614027 0.17905194
000150 e8 4c 29 bf 67 d4 2b bc 34 be 12 3c 3f 66 83 c0
       -0.66132975 -0.010487652 0.008956481 -4.106231
000160 c0 31 eb 3b 33 52 54 c0 b7 fb 1f 3f 29 8b 06 3f
       0.0071775615 -3.317517 0.6249346 0.5255609
000170 ac 26 cc 3e 36 e5 6a 3e 75 2f d1 be a2 30 d6 3c
       0.39873254 0.22939 -0.4085652 0.026146237
000180 52 f3 2c 40 0b 79 33 c0 cc 5a 8e 3d 02 a0 19 3c
       2.702351 -2.8042629 0.06950912 0.009376528
000190 d8 3e e1 3e 8a 3b ae bf 15 52 7a 3b fd 3c 92 bd
       0.43993258 -1.361192 0.0038195897 -0.07140539
0001a0 78 6d b1 be 0b a8 93 3d a7 c9 b0 3e 05 cd a7 3b
       -0.3465383 0.07209786 0.3452885 0.005120876
0001b0 42 f0 54 3f ac 71 a2 c0 71 d2 0b 3f 3e aa 82 3e
       0.83179104 -5.076376 0.54617983 0.2552051
0001c0 30 8e c4 c0 f0 e8 87 c0 0e 93 21 c0 90 2b 8d 3e
       -6.142357 -4.2471848 -2.5246005 0.27572298
0001d0 34 6e c3 3c a5 ae 85 3a bc cc 1c 3e 22 45 7f 3e
       0.02385626 0.0010199143 0.15312475 0.24928716
0001e0 39 67 18 ba bc 76 b7 bc 38 c1 ac 3f 9e 0c a4 c0
       -0.0005813721 -0.022395484 1.3496466 -5.12654
0001f0 77 fe 5a c0 a4 58 09 3e 92 ac 5b 3f 7f 0c 79 bc
       -3.4217813 0.1341272 0.85810196 -0.015200733
000200 57 0f 98 3e 2c c2 06 3f 83 7c f0 bf 1a 7c df 3e
       0.29699203 0.5264003 -1.8787998 0.4364937
000210 dd a5 47 b9 09 d0 af 3e 26 46 e4 3c 98 24 2a 3c
       -0.00019039908 0.34338406 0.02786548 0.010384701
000220 10 3b 08 3d 83 29 37 3f 8d 90 ec 3e d1 39 a4 3b
       0.03325945 0.71547717 0.46204033 0.005011775
000230 87 46 1c b9 c8 ca 01 3c f2 06 be 3f 8c 3d 7f b9
       -0.00014903593 0.007921882 1.484587 -0.00024341623
000240 83 e2 d3 3e d2 f0 5a 3e 2f 1c 1a 3f 5a d1 2c 3c
       0.41383752 0.21380928 0.60199255 0.01054796
000250 ae ec d0 3f 20 32 93 b9 91 36 53 bf 61 34 bb bc
       1.6322229 -0.0002807537 -0.82505137 -0.022852125
000260 1e db ab 3d 92 13 d2 b8 bc 62 eb 3e d2 42 59 bf
       0.08391403 -0.000100172256 0.45973766 -0.84867585
000270 d0 21 29 c0 8d 5e 0b 3e b2 e3 0e 3d 4f 55 d7 3e
       -2.6426888 0.13610287 0.034885116 0.42057273
000280 5a 4e cd be c1 2d a5 bf 4f 0c 0f 3e 27 bf c0 3d
       -0.4009884 -1.2904588 0.13969539 0.094114594
000290 f6 27 5e bc 93 b1 54 be 37 d0 40 3f 33 81 99 c0
       -0.013559332 -0.20770864 0.7531771 -4.7970214
0002a0 ac 84 4c 3f 53 60 46 c0 d5 c0 4a 3d 0d 64 11 3f
       0.7988994 -3.0996292 0.049500305 0.5679329
0002b0 e3 24 8a 3d e5 d0 b3 b8 9c db 0c 3f 0c 80 b8 3e
       0.06745317 -8.574295e-05 0.550226 0.36035192
0002c0 fa 94 0f c0 4c 7b 12 3e 2e 6b 6f 3e 54 e7 e2 bb
       -2.2434678 0.14304847 0.2338073 -0.006924549
0002d0 00 00 00 00 6d 14 35 be 54 dd 4b b9 45 6c 9d b9
       0.0 -0.17683573 -0.0001944204 -0.0003002604
0002e0 c8 d1 c5 3f b5 83 f7 bf d1 46 1a bf 51 85 11 3f
       1.5454645 -1.9337069 -0.6026431 0.5684405
0002f0 9d c9 15 bd 7e 5d 3f 3e 31 89 ac 38 ca 9a 1e bf
       -0.036569227 0.18688008 8.227153e-05 -0.6195494
000300 4b 26 d0 3e 42 e2 57 3b 0e 7a 24 3d 4c 4b 86 bf
       0.40654215 0.0032941257 0.040155463 -1.0491729
000310 d2 33 20 3f 87 10 32 bf da ac 2c 3d 7a 99 b4 be
       0.6257907 -0.6955647 0.04215703 -0.35273343
000320 ea 94 16 3a 0a 56 94 b9 6b 0e 99 c0 f6 b5 4c 3f
       0.0005744236 -0.00028292864 -4.78301 0.7996515
000330 e1 52 eb 3d 7b b4 0d 3f f3 d9 98 b9 5b bb a9 3d
       0.11490417 0.55353516 -0.00029154084 0.08287688
000340 76 f3 13 40 c2 c7 14 3e 43 6e 8c 3e d9 77 ad 3f
       2.3117347 0.14529327 0.27427873 1.35522
000350 eb 1e 03 bf 27 57 a5 bf 89 72 5e 37 a3 f3 ac b9
       -0.5121905 -1.2917222 1.3258898e-05 -0.0003298792
000360 cc bd 91 c0 ee 36 b3 3f 7b db f2 be cf b8 2c c0
       -4.5544186 1.4001138 -0.47433075 -2.6987798
000370 b3 93 35 c0 0d 22 9a 3f 68 74 85 b9 d6 54 75 3f
       -2.8371398 1.2041641 -0.00025454466 0.95832574
000380 e7 09 52 3e 08 a3 c5 bf 08 1d b4 3b 2a cf 6c 3d
       0.2051159 -1.5440378 0.005496625 0.057814755
000390 d1 5d 8a bc 10 fd 3e c0 1b 58 b5 3c 3f 53 39 c0
       -0.016890438 -2.9841957 0.022136739 -2.895706
0003a0 22 3e 52 3e b1 9c 2a 3f 91 1c 04 3f 76 25 e4 b9
       0.20531514 0.6664534 0.5160609 -0.0004351546
0003b0 03 4f b6 3e bb 83 7f bf bd 9d 85 3e 50 79 9b be
       0.35607156 -0.9981038 0.26096907 -0.30365992
0003c0 cb 71 3c 3b 00 00 00 00 17 02 d3 b9 4a 31 93 3e
       0.002875435 0.0 -0.00040246613 0.28748542
0003d0 a2 c7 f6 bf 40 e9 c4 3e d4 77 54 3f bc 3f 4c be
       -1.9279673 0.38459206 0.82995343 -0.19946188
0003e0 81 4d cb 3f 6c 89 df 3c f7 b7 69 b9 ab db e7 3d
       1.5883027 0.027287208 -0.00022289144 0.11321195
0003f0 1d c2 09 3b 2a b8 dd 3a 3a 31 67 3f 76 5a 93 3e
       0.0021020242 0.0016915847 0.9030949 0.28779954
